(INFO) 2022-08-09 08:21:23: Number of GPUs: 1
(INFO) 2022-08-09 08:21:23: Namespace(batch_size=1, checkpoints_path=PosixPath('experiments/toy_v2/132/checkpoints'), dataset_path='app/custom_dataset', device=device(type='cuda', index=0), exp_name='', gpus='0', logs_path=PosixPath('experiments/toy_v2/132/logs'), ngpus=1, no_cuda=False, no_exp=False, run_path=PosixPath('experiments/toy_v2/132'), start_epoch=0, syncbn=False, val_batch_size=8, weights=None, workers=0)
(INFO) 2022-08-09 08:21:23: AdaptIS(
  (backbone): UNet(
    (image_bn): BatchNorm2d(3, eps=1e-05, momentum=0.1, affine=True, track_running_stats=True)
    (encoder): ModuleList(
      (0): Sequential(
        (0): Identity()
        (1): DownBlock(
          (down_block): Sequential(
            (0): ConvBlock(
              (conv_block): Sequential(
                (0): Conv2d(3, 32, kernel_size=(3, 3), stride=(1, 1), padding=(1, 1), bias=False)
                (1): ReLU()
                (2): BatchNorm2d(32, eps=1e-05, momentum=0.1, affine=True, track_running_stats=True)
              )
            )
            (1): ConvBlock(
              (conv_block): Sequential(
                (0): Conv2d(32, 32, kernel_size=(3, 3), stride=(1, 1), padding=(1, 1), bias=False)
                (1): ReLU()
                (2): BatchNorm2d(32, eps=1e-05, momentum=0.1, affine=True, track_running_stats=True)
              )
            )
          )
        )
      )
      (1): Sequential(
        (0): MaxPool2d(kernel_size=2, stride=2, padding=0, dilation=1, ceil_mode=True)
        (1): DownBlock(
          (down_block): Sequential(
            (0): ConvBlock(
              (conv_block): Sequential(
                (0): Conv2d(32, 64, kernel_size=(3, 3), stride=(1, 1), padding=(1, 1), bias=False)
                (1): ReLU()
                (2): BatchNorm2d(64, eps=1e-05, momentum=0.1, affine=True, track_running_stats=True)
              )
            )
            (1): ConvBlock(
              (conv_block): Sequential(
                (0): Conv2d(64, 64, kernel_size=(3, 3), stride=(1, 1), padding=(1, 1), bias=False)
                (1): ReLU()
                (2): BatchNorm2d(64, eps=1e-05, momentum=0.1, affine=True, track_running_stats=True)
              )
            )
          )
        )
      )
      (2): Sequential(
        (0): MaxPool2d(kernel_size=2, stride=2, padding=0, dilation=1, ceil_mode=True)
        (1): DownBlock(
          (down_block): Sequential(
            (0): ConvBlock(
              (conv_block): Sequential(
                (0): Conv2d(64, 128, kernel_size=(3, 3), stride=(1, 1), padding=(1, 1), bias=False)
                (1): ReLU()
                (2): BatchNorm2d(128, eps=1e-05, momentum=0.1, affine=True, track_running_stats=True)
              )
            )
            (1): ConvBlock(
              (conv_block): Sequential(
                (0): Conv2d(128, 128, kernel_size=(3, 3), stride=(1, 1), padding=(1, 1), bias=False)
                (1): ReLU()
                (2): BatchNorm2d(128, eps=1e-05, momentum=0.1, affine=True, track_running_stats=True)
              )
            )
          )
        )
      )
      (3): Sequential(
        (0): MaxPool2d(kernel_size=2, stride=2, padding=0, dilation=1, ceil_mode=True)
        (1): DownBlock(
          (down_block): Sequential(
            (0): ConvBlock(
              (conv_block): Sequential(
                (0): Conv2d(128, 256, kernel_size=(3, 3), stride=(1, 1), padding=(1, 1), bias=False)
                (1): ReLU()
                (2): BatchNorm2d(256, eps=1e-05, momentum=0.1, affine=True, track_running_stats=True)
              )
            )
            (1): ConvBlock(
              (conv_block): Sequential(
                (0): Conv2d(256, 256, kernel_size=(3, 3), stride=(1, 1), padding=(1, 1), bias=False)
                (1): ReLU()
                (2): BatchNorm2d(256, eps=1e-05, momentum=0.1, affine=True, track_running_stats=True)
              )
            )
          )
        )
      )
      (4): Sequential(
        (0): MaxPool2d(kernel_size=2, stride=2, padding=0, dilation=1, ceil_mode=True)
        (1): DownBlock(
          (down_block): Sequential(
            (0): ConvBlock(
              (conv_block): Sequential(
                (0): Conv2d(256, 512, kernel_size=(3, 3), stride=(1, 1), padding=(1, 1), bias=False)
                (1): ReLU()
                (2): BatchNorm2d(512, eps=1e-05, momentum=0.1, affine=True, track_running_stats=True)
              )
            )
            (1): ConvBlock(
              (conv_block): Sequential(
                (0): Conv2d(512, 512, kernel_size=(3, 3), stride=(1, 1), padding=(1, 1), bias=False)
                (1): ReLU()
                (2): BatchNorm2d(512, eps=1e-05, momentum=0.1, affine=True, track_running_stats=True)
              )
            )
          )
        )
      )
    )
    (decoder): ModuleList(
      (0): UpBlock(
        (upsampler): Sequential(
          (0): BilinearConvTranspose2d(512, 256, kernel_size=(4, 4), stride=(2, 2), padding=(1, 1), groups=256, bias=False)
          (1): ReLU()
        )
        (conv3_0): ConvBlock(
          (conv_block): Sequential(
            (0): Conv2d(512, 256, kernel_size=(3, 3), stride=(1, 1), padding=(1, 1), bias=False)
            (1): ReLU()
            (2): BatchNorm2d(256, eps=1e-05, momentum=0.1, affine=True, track_running_stats=True)
          )
        )
        (conv3_1): ConvBlock(
          (conv_block): Sequential(
            (0): Conv2d(256, 128, kernel_size=(3, 3), stride=(1, 1), padding=(1, 1), bias=False)
            (1): ReLU()
            (2): BatchNorm2d(128, eps=1e-05, momentum=0.1, affine=True, track_running_stats=True)
          )
        )
      )
      (1): UpBlock(
        (upsampler): Sequential(
          (0): BilinearConvTranspose2d(128, 128, kernel_size=(4, 4), stride=(2, 2), padding=(1, 1), groups=128, bias=False)
          (1): ReLU()
        )
        (conv3_0): ConvBlock(
          (conv_block): Sequential(
            (0): Conv2d(256, 128, kernel_size=(3, 3), stride=(1, 1), padding=(1, 1), bias=False)
            (1): ReLU()
            (2): BatchNorm2d(128, eps=1e-05, momentum=0.1, affine=True, track_running_stats=True)
          )
        )
        (conv3_1): ConvBlock(
          (conv_block): Sequential(
            (0): Conv2d(128, 64, kernel_size=(3, 3), stride=(1, 1), padding=(1, 1), bias=False)
            (1): ReLU()
            (2): BatchNorm2d(64, eps=1e-05, momentum=0.1, affine=True, track_running_stats=True)
          )
        )
      )
      (2): UpBlock(
        (upsampler): Sequential(
          (0): BilinearConvTranspose2d(64, 64, kernel_size=(4, 4), stride=(2, 2), padding=(1, 1), groups=64, bias=False)
          (1): ReLU()
        )
        (conv3_0): ConvBlock(
          (conv_block): Sequential(
            (0): Conv2d(128, 64, kernel_size=(3, 3), stride=(1, 1), padding=(1, 1), bias=False)
            (1): ReLU()
            (2): BatchNorm2d(64, eps=1e-05, momentum=0.1, affine=True, track_running_stats=True)
          )
        )
        (conv3_1): ConvBlock(
          (conv_block): Sequential(
            (0): Conv2d(64, 32, kernel_size=(3, 3), stride=(1, 1), padding=(1, 1), bias=False)
            (1): ReLU()
            (2): BatchNorm2d(32, eps=1e-05, momentum=0.1, affine=True, track_running_stats=True)
          )
        )
      )
      (3): UpBlock(
        (upsampler): Sequential(
          (0): BilinearConvTranspose2d(32, 32, kernel_size=(4, 4), stride=(2, 2), padding=(1, 1), groups=32, bias=False)
          (1): ReLU()
        )
        (conv3_0): ConvBlock(
          (conv_block): Sequential(
            (0): Conv2d(64, 32, kernel_size=(3, 3), stride=(1, 1), padding=(1, 1), bias=False)
            (1): ReLU()
            (2): BatchNorm2d(32, eps=1e-05, momentum=0.1, affine=True, track_running_stats=True)
          )
        )
        (conv3_1): ConvBlock(
          (conv_block): Sequential(
            (0): Conv2d(32, 32, kernel_size=(3, 3), stride=(1, 1), padding=(1, 1), bias=False)
            (1): ReLU()
            (2): BatchNorm2d(32, eps=1e-05, momentum=0.1, affine=True, track_running_stats=True)
          )
        )
      )
    )
    (final_block): DownBlock(
      (down_block): Sequential(
        (0): ConvBlock(
          (conv_block): Sequential(
            (0): Conv2d(32, 32, kernel_size=(3, 3), stride=(1, 1), padding=(1, 1), bias=False)
            (1): ReLU()
            (2): BatchNorm2d(32, eps=1e-05, momentum=0.1, affine=True, track_running_stats=True)
          )
        )
        (1): ConvBlock(
          (conv_block): Sequential(
            (0): Conv2d(32, 32, kernel_size=(3, 3), stride=(1, 1), padding=(1, 1), bias=False)
            (1): ReLU()
            (2): BatchNorm2d(32, eps=1e-05, momentum=0.1, affine=True, track_running_stats=True)
          )
        )
      )
    )
  )
  (adaptis_head): ToyAdaptISHead(
    (EQF): ExtractQueryFeatures(
      (extractor): RoIAlign(output_size=(1, 1), spatial_scale=1.0, sampling_ratio=-1, aligned=False)
    )
    (controller): SimpleConvController(
      (controller): Sequential(
        (0): Conv2d(32, 32, kernel_size=(1, 1), stride=(1, 1))
        (1): ReLU()
        (2): BatchNorm2d(32, eps=1e-05, momentum=0.1, affine=True, track_running_stats=True)
        (3): Conv2d(32, 32, kernel_size=(1, 1), stride=(1, 1))
        (4): ReLU()
        (5): BatchNorm2d(32, eps=1e-05, momentum=0.1, affine=True, track_running_stats=True)
        (6): Conv2d(32, 32, kernel_size=(1, 1), stride=(1, 1))
        (7): ReLU()
        (8): BatchNorm2d(32, eps=1e-05, momentum=0.1, affine=True, track_running_stats=True)
      )
    )
    (add_coord_features): AppendCoordFeatures()
    (block0): Sequential(
      (0): Conv2d(35, 32, kernel_size=(3, 3), stride=(1, 1), padding=(1, 1))
      (1): ReLU()
      (2): BatchNorm2d(32, eps=1e-05, momentum=0.1, affine=True, track_running_stats=True)
      (3): Conv2d(32, 32, kernel_size=(3, 3), stride=(1, 1), padding=(1, 1))
      (4): ReLU()
      (5): BatchNorm2d(32, eps=1e-05, momentum=0.1, affine=True, track_running_stats=True)
      (6): Conv2d(32, 32, kernel_size=(3, 3), stride=(1, 1), padding=(1, 1))
      (7): ReLU()
      (8): BatchNorm2d(32, eps=1e-05, momentum=0.1, affine=True, track_running_stats=True)
    )
    (adain): AdaIN(
      (affine_scale): Linear(in_features=32, out_features=32, bias=True)
      (affine_bias): Linear(in_features=32, out_features=32, bias=True)
      (in_2d): InstanceNorm2d(32, eps=1e-05, momentum=0.0, affine=False, track_running_stats=False)
    )
    (block1): Sequential(
      (0): Conv2d(32, 16, kernel_size=(3, 3), stride=(1, 1), padding=(1, 1))
      (1): ReLU()
      (2): BatchNorm2d(16, eps=1e-05, momentum=0.1, affine=True, track_running_stats=True)
      (3): Conv2d(16, 1, kernel_size=(1, 1), stride=(1, 1))
    )
  )
  (segmentation_head): ConvHead(
    (convhead): Sequential(
      (0): Conv2d(32, 32, kernel_size=(3, 3), stride=(1, 1), padding=(1, 1))
      (1): ReLU()
      (2): BatchNorm2d(32, eps=1e-05, momentum=0.1, affine=True, track_running_stats=True)
      (3): Conv2d(32, 32, kernel_size=(3, 3), stride=(1, 1), padding=(1, 1))
      (4): ReLU()
      (5): BatchNorm2d(32, eps=1e-05, momentum=0.1, affine=True, track_running_stats=True)
      (6): Conv2d(32, 32, kernel_size=(3, 3), stride=(1, 1), padding=(1, 1))
      (7): ReLU()
      (8): BatchNorm2d(32, eps=1e-05, momentum=0.1, affine=True, track_running_stats=True)
      (9): Conv2d(32, 10, kernel_size=(1, 1), stride=(1, 1))
    )
  )
)
(INFO) 2022-08-09 08:21:26: Starting Epoch: 0
(INFO) 2022-08-09 08:21:26: Total Epochs: 5
(INFO) 2022-08-09 08:21:26: 0%|                                                                       | 0/500 [00:00<?, ?it/s]
(INFO) 2022-08-09 08:21:47: Epoch 0, training loss 2.708984:   0%|                                      | 0/500 [00:21<?, ?it/s]
…
(INFO) 2022-08-09 14:06:07: Epoch 4, validation loss: 1.233647:  95%|#########################5 | 88/93 [08:47<00:29,  5.91s/it]
(INFO) 2022-08-09 14:06:13: Epoch 4, validation loss: 1.231658:  96%|#########################8 | 89/93 [08:53<00:23,  5.91s/it]
(INFO) 2022-08-09 14:06:19: Epoch 4, validation loss: 1.231596:  97%|##########################1| 90/93 [08:58<00:17,  5.89s/it]
(INFO) 2022-08-09 14:06:25: Epoch 4, validation loss: 1.236032:  98%|##########################4| 91/93 [09:04<00:11,  5.91s/it]
(INFO) 2022-08-09 14:06:31: Epoch 4, validation loss: 1.237906:  99%|##########################7| 92/93 [09:10<00:05,  5.92s/it]
(INFO) 2022-08-09 14:06:31: AdaptIS(
  (backbone): UNet(
    (image_bn): BatchNorm2d(3, eps=1e-05, momentum=0.1, affine=True, track_running_stats=True)
    (encoder): ModuleList(
      (0): Sequential(
        (0): Identity()
        (1): DownBlock(
          (down_block): Sequential(
            (0): ConvBlock(
              (conv_block): Sequential(
                (0): Conv2d(3, 32, kernel_size=(3, 3), stride=(1, 1), padding=(1, 1), bias=False)
                (1): ReLU()
                (2): BatchNorm2d(32, eps=1e-05, momentum=0.1, affine=True, track_running_stats=True)
              )
            )
            (1): ConvBlock(
              (conv_block): Sequential(
                (0): Conv2d(32, 32, kernel_size=(3, 3), stride=(1, 1), padding=(1, 1), bias=False)
                (1): ReLU()
                (2): BatchNorm2d(32, eps=1e-05, momentum=0.1, affine=True, track_running_stats=True)
              )
            )
          )
        )
      )
      (1): Sequential(
        (0): MaxPool2d(kernel_size=2, stride=2, padding=0, dilation=1, ceil_mode=True)
        (1): DownBlock(
          (down_block): Sequential(
            (0): ConvBlock(
              (conv_block): Sequential(
                (0): Conv2d(32, 64, kernel_size=(3, 3), stride=(1, 1), padding=(1, 1), bias=False)
                (1): ReLU()
                (2): BatchNorm2d(64, eps=1e-05, momentum=0.1, affine=True, track_running_stats=True)
              )
            )
            (1): ConvBlock(
              (conv_block): Sequential(
                (0): Conv2d(64, 64, kernel_size=(3, 3), stride=(1, 1), padding=(1, 1), bias=False)
                (1): ReLU()
                (2): BatchNorm2d(64, eps=1e-05, momentum=0.1, affine=True, track_running_stats=True)
              )
            )
          )
        )
      )
      (2): Sequential(
        (0): MaxPool2d(kernel_size=2, stride=2, padding=0, dilation=1, ceil_mode=True)
        (1): DownBlock(
          (down_block): Sequential(
            (0): ConvBlock(
              (conv_block): Sequential(
                (0): Conv2d(64, 128, kernel_size=(3, 3), stride=(1, 1), padding=(1, 1), bias=False)
                (1): ReLU()
                (2): BatchNorm2d(128, eps=1e-05, momentum=0.1, affine=True, track_running_stats=True)
              )
            )
            (1): ConvBlock(
              (conv_block): Sequential(
                (0): Conv2d(128, 128, kernel_size=(3, 3), stride=(1, 1), padding=(1, 1), bias=False)
                (1): ReLU()
                (2): BatchNorm2d(128, eps=1e-05, momentum=0.1, affine=True, track_running_stats=True)
              )
            )
          )
        )
      )
      (3): Sequential(
        (0): MaxPool2d(kernel_size=2, stride=2, padding=0, dilation=1, ceil_mode=True)
        (1): DownBlock(
          (down_block): Sequential(
            (0): ConvBlock(
              (conv_block): Sequential(
                (0): Conv2d(128, 256, kernel_size=(3, 3), stride=(1, 1), padding=(1, 1), bias=False)
                (1): ReLU()
                (2): BatchNorm2d(256, eps=1e-05, momentum=0.1, affine=True, track_running_stats=True)
              )
            )
            (1): ConvBlock(
              (conv_block): Sequential(
                (0): Conv2d(256, 256, kernel_size=(3, 3), stride=(1, 1), padding=(1, 1), bias=False)
                (1): ReLU()
                (2): BatchNorm2d(256, eps=1e-05, momentum=0.1, affine=True, track_running_stats=True)
              )
            )
          )
        )
      )
      (4): Sequential(
        (0): MaxPool2d(kernel_size=2, stride=2, padding=0, dilation=1, ceil_mode=True)
        (1): DownBlock(
          (down_block): Sequential(
            (0): ConvBlock(
              (conv_block): Sequential(
                (0): Conv2d(256, 512, kernel_size=(3, 3), stride=(1, 1), padding=(1, 1), bias=False)
                (1): ReLU()
                (2): BatchNorm2d(512, eps=1e-05, momentum=0.1, affine=True, track_running_stats=True)
              )
            )
            (1): ConvBlock(
              (conv_block): Sequential(
                (0): Conv2d(512, 512, kernel_size=(3, 3), stride=(1, 1), padding=(1, 1), bias=False)
                (1): ReLU()
                (2): BatchNorm2d(512, eps=1e-05, momentum=0.1, affine=True, track_running_stats=True)
              )
            )
          )
        )
      )
    )
    (decoder): ModuleList(
      (0): UpBlock(
        (upsampler): Sequential(
          (0): BilinearConvTranspose2d(512, 256, kernel_size=(4, 4), stride=(2, 2), padding=(1, 1), groups=256, bias=False)
          (1): ReLU()
        )
        (conv3_0): ConvBlock(
          (conv_block): Sequential(
            (0): Conv2d(512, 256, kernel_size=(3, 3), stride=(1, 1), padding=(1, 1), bias=False)
            (1): ReLU()
            (2): BatchNorm2d(256, eps=1e-05, momentum=0.1, affine=True, track_running_stats=True)
          )
        )
        (conv3_1): ConvBlock(
          (conv_block): Sequential(
            (0): Conv2d(256, 128, kernel_size=(3, 3), stride=(1, 1), padding=(1, 1), bias=False)
            (1): ReLU()
            (2): BatchNorm2d(128, eps=1e-05, momentum=0.1, affine=True, track_running_stats=True)
          )
        )
      )
      (1): UpBlock(
        (upsampler): Sequential(
          (0): BilinearConvTranspose2d(128, 128, kernel_size=(4, 4), stride=(2, 2), padding=(1, 1), groups=128, bias=False)
          (1): ReLU()
        )
        (conv3_0): ConvBlock(
          (conv_block): Sequential(
            (0): Conv2d(256, 128, kernel_size=(3, 3), stride=(1, 1), padding=(1, 1), bias=False)
            (1): ReLU()
            (2): BatchNorm2d(128, eps=1e-05, momentum=0.1, affine=True, track_running_stats=True)
          )
        )
        (conv3_1): ConvBlock(
          (conv_block): Sequential(
            (0): Conv2d(128, 64, kernel_size=(3, 3), stride=(1, 1), padding=(1, 1), bias=False)
            (1): ReLU()
            (2): BatchNorm2d(64, eps=1e-05, momentum=0.1, affine=True, track_running_stats=True)
          )
        )
      )
      (2): UpBlock(
        (upsampler): Sequential(
          (0): BilinearConvTranspose2d(64, 64, kernel_size=(4, 4), stride=(2, 2), padding=(1, 1), groups=64, bias=False)
          (1): ReLU()
        )
        (conv3_0): ConvBlock(
          (conv_block): Sequential(
            (0): Conv2d(128, 64, kernel_size=(3, 3), stride=(1, 1), padding=(1, 1), bias=False)
            (1): ReLU()
            (2): BatchNorm2d(64, eps=1e-05, momentum=0.1, affine=True, track_running_stats=True)
          )
        )
        (conv3_1): ConvBlock(
          (conv_block): Sequential(
            (0): Conv2d(64, 32, kernel_size=(3, 3), stride=(1, 1), padding=(1, 1), bias=False)
            (1): ReLU()
            (2): BatchNorm2d(32, eps=1e-05, momentum=0.1, affine=True, track_running_stats=True)
          )
        )
      )
      (3): UpBlock(
        (upsampler): Sequential(
          (0): BilinearConvTranspose2d(32, 32, kernel_size=(4, 4), stride=(2, 2), padding=(1, 1), groups=32, bias=False)
          (1): ReLU()
        )
        (conv3_0): ConvBlock(
          (conv_block): Sequential(
            (0): Conv2d(64, 32, kernel_size=(3, 3), stride=(1, 1), padding=(1, 1), bias=False)
            (1): ReLU()
            (2): BatchNorm2d(32, eps=1e-05, momentum=0.1, affine=True, track_running_stats=True)
          )
        )
        (conv3_1): ConvBlock(
          (conv_block): Sequential(
            (0): Conv2d(32, 32, kernel_size=(3, 3), stride=(1, 1), padding=(1, 1), bias=False)
            (1): ReLU()
            (2): BatchNorm2d(32, eps=1e-05, momentum=0.1, affine=True, track_running_stats=True)
          )
        )
      )
    )
    (final_block): DownBlock(
      (down_block): Sequential(
        (0): ConvBlock(
          (conv_block): Sequential(
            (0): Conv2d(32, 32, kernel_size=(3, 3), stride=(1, 1), padding=(1, 1), bias=False)
            (1): ReLU()
            (2): BatchNorm2d(32, eps=1e-05, momentum=0.1, affine=True, track_running_stats=True)
          )
        )
        (1): ConvBlock(
          (conv_block): Sequential(
            (0): Conv2d(32, 32, kernel_size=(3, 3), stride=(1, 1), padding=(1, 1), bias=False)
            (1): ReLU()
            (2): BatchNorm2d(32, eps=1e-05, momentum=0.1, affine=True, track_running_stats=True)
          )
        )
      )
    )
  )
  (adaptis_head): ToyAdaptISHead(
    (EQF): ExtractQueryFeatures(
      (extractor): RoIAlign(output_size=(1, 1), spatial_scale=1.0, sampling_ratio=-1, aligned=False)
    )
    (controller): SimpleConvController(
      (controller): Sequential(
        (0): Conv2d(32, 32, kernel_size=(1, 1), stride=(1, 1))
        (1): ReLU()
        (2): BatchNorm2d(32, eps=1e-05, momentum=0.1, affine=True, track_running_stats=True)
        (3): Conv2d(32, 32, kernel_size=(1, 1), stride=(1, 1))
        (4): ReLU()
        (5): BatchNorm2d(32, eps=1e-05, momentum=0.1, affine=True, track_running_stats=True)
        (6): Conv2d(32, 32, kernel_size=(1, 1), stride=(1, 1))
        (7): ReLU()
        (8): BatchNorm2d(32, eps=1e-05, momentum=0.1, affine=True, track_running_stats=True)
      )
    )
    (add_coord_features): AppendCoordFeatures()
    (block0): Sequential(
      (0): Conv2d(35, 32, kernel_size=(3, 3), stride=(1, 1), padding=(1, 1))
      (1): ReLU()
      (2): BatchNorm2d(32, eps=1e-05, momentum=0.1, affine=True, track_running_stats=True)
      (3): Conv2d(32, 32, kernel_size=(3, 3), stride=(1, 1), padding=(1, 1))
      (4): ReLU()
      (5): BatchNorm2d(32, eps=1e-05, momentum=0.1, affine=True, track_running_stats=True)
      (6): Conv2d(32, 32, kernel_size=(3, 3), stride=(1, 1), padding=(1, 1))
      (7): ReLU()
      (8): BatchNorm2d(32, eps=1e-05, momentum=0.1, affine=True, track_running_stats=True)
    )
    (adain): AdaIN(
      (affine_scale): Linear(in_features=32, out_features=32, bias=True)
      (affine_bias): Linear(in_features=32, out_features=32, bias=True)
      (in_2d): InstanceNorm2d(32, eps=1e-05, momentum=0.0, affine=False, track_running_stats=False)
    )
    (block1): Sequential(
      (0): Conv2d(32, 16, kernel_size=(3, 3), stride=(1, 1), padding=(1, 1))
      (1): ReLU()
      (2): BatchNorm2d(16, eps=1e-05, momentum=0.1, affine=True, track_running_stats=True)
      (3): Conv2d(16, 1, kernel_size=(1, 1), stride=(1, 1))
    )
  )
  (segmentation_head): ConvHead(
    (convhead): Sequential(
      (0): Conv2d(32, 32, kernel_size=(3, 3), stride=(1, 1), padding=(1, 1))
      (1): ReLU()
      (2): BatchNorm2d(32, eps=1e-05, momentum=0.1, affine=True, track_running_stats=True)
      (3): Conv2d(32, 32, kernel_size=(3, 3), stride=(1, 1), padding=(1, 1))
      (4): ReLU()
      (5): BatchNorm2d(32, eps=1e-05, momentum=0.1, affine=True, track_running_stats=True)
      (6): Conv2d(32, 32, kernel_size=(3, 3), stride=(1, 1), padding=(1, 1))
      (7): ReLU()
      (8): BatchNorm2d(32, eps=1e-05, momentum=0.1, affine=True, track_running_stats=True)
      (9): Conv2d(32, 10, kernel_size=(1, 1), stride=(1, 1))
    )
  )
  (proposals_head): ConvHead(
    (convhead): Sequential(
      (0): Conv2d(32, 32, kernel_size=(3, 3), stride=(1, 1), padding=(1, 1))
      (1): ReLU()
      (2): BatchNorm2d(32, eps=1e-05, momentum=0.1, affine=True, track_running_stats=True)
      (3): Conv2d(32, 32, kernel_size=(3, 3), stride=(1, 1), padding=(1, 1))
      (4): ReLU()
      (5): BatchNorm2d(32, eps=1e-05, momentum=0.1, affine=True, track_running_stats=True)
      (6): Conv2d(32, 1, kernel_size=(1, 1), stride=(1, 1))
    )
  )
)
(INFO) 2022-08-09 14:06:31: Starting Epoch: 0
(INFO) 2022-08-09 14:06:31: Total Epochs: 5
(INFO) 2022-08-09 14:06:31: 0%|                                                                       | 0/500 [00:00<?, ?it/s]
(INFO) 2022-08-09 14:06:38: Epoch 0, training loss 1.584010:   0%|                                      | 0/500 [00:06<?, ?it/s]
(INFO) 2022-08-09 14:06:44: Epoch 0, training loss 1.161964:   0%|                              | 1/500 [00:13<57:03,  6.86s/it]
…
